noun_pharse_get/model.pth (torch, 616731 bytes, 12 tensors)

transitions f4 [9, 9]
000000 6e 82 33 c0 fd 88 21 40 12 98 5c c0 f1 ce 97 3f
       -2.8048358 2.523986 -3.4467816 1.1860029
000010 41 05 97 3f f0 c3 f2 3f a4 da 82 be e5 e6 7d 40
       1.1798478 1.8966045 -0.25557435 3.9672177
000020 00 40 1c c6 92 e9 56 bf f6 6c e1 3f bf c9 09 c0
       -10000.0 -0.8395015 1.7611377 -2.1529386
000030 45 81 db be c1 32 4e bf 40 e1 02 40 cc 51 1e bf
       -0.42872062 -0.80546194 2.0449982 -0.6184356
000040 ef a9 77 40 00 40 1c c6 2a 66 30 41 11 8a 87 c0
       3.869747 -10000.0 11.024942 -4.235604
000050 34 0f 13 41 49 e3 8c c0 a6 f2 4b c0 97 c3 76 c0
       9.191212 -4.402745 -3.186685 -3.8556879
000060 93 f9 1a c0 76 2a d2 c0 00 40 1c c6 86 09 ba 3f
       -2.4214828 -6.567683 -10000.0 1.4534156
000070 4f 18 db 3a 9a 91 b7 3b 59 55 f3 bf 31 1a e3 bf
       0.0016715619 0.005602074 -1.9010421 -1.7742368
000080 d0 e7 11 40 41 d3 45 c0 66 6f 67 be 00 40 1c c6
       2.2797737 -3.091019 -0.22601089 -10000.0
000090 0b b3 f7 c0 15 c9 9f c0 3a 3c bf c0 7c d6 2d 41
       -7.740606 -4.993296 -5.976102 10.864864
0000a0 f4 0d 2b 41 5c 1b 7e c0 d8 d6 1e c0 fb 63 92 c0
       10.690907 -3.97042 -2.481863 -4.5747046
0000b0 00 40 1c c6 6f 9a 36 bf de cf cb 3e ba 10 db bf
       -10000.0 -0.71329397 0.39807028 -1.711448
0000c0 f7 cb 97 3f 04 eb 31 3f 83 7f 51 40 4c e9 e2 bf
       1.185912 0.6949923 3.2734077 -1.7727447
0000d0 f3 0e 84 40 00 40 1c c6 d5 45 51 c0 81 47 0c 41
       4.126825 -10000.0 -3.2698872 8.767457
0000e0 20 c8 a3 c0 33 19 f9 bf 0b 23 d1 bf 57 f7 b8 bf
       -5.1181793 -1.9460815 -1.6338819 -1.4450482
0000f0 4f 50 e7 40 a0 6b 5a be 00 40 1c c6 00 40 1c c6
       7.2285533 -0.21330118 -10000.0 -10000.0
000100 00 40 1c c6 00 40 1c c6 00 40 1c c6 00 40 1c c6
       -10000.0 -10000.0 -10000.0 -10000.0
000110 00 40 1c c6 00 40 1c c6 00 40 1c c6 00 40 1c c6
       -10000.0 -10000.0 -10000.0 -10000.0
000120 23 90 8a 3e b5 0f a5 3f 77 12 90 3e f8 c5 a3 c0
       0.27063093 1.2895418 0.28139088 -5.117916
000130 5c f3 d0 bf a1 8e b6 40 5d 4d f5 be bf 55 df 3f
       -1.6324267 5.7049108 -0.47910586 1.7448043
000140 00 40 1c c6
       -10000.0

word_embeds.weight f4 [19122, 8]
000000 b3 51 bb bf 48 89 d6 bd 9f 6b 37 3e b4 df b1 bf
       -1.4634308 -0.10475403 0.17912148 -1.3896394
000010 5e 92 ca be 3c bf ab be 25 67 37 bf c5 c6 a2 bf
       -0.39564794 -0.33544338 -0.7164176 -1.271691
000020 b0 8f fe 3f 64 b0 8d 3e cc 72 20 c0 b7 4c e6 3f
       1.98876 0.27673638 -2.5070066 1.7992162
000030 2e 78 f1 3e de 90 8b 40 12 d0 38 3f d7 75 07 3f
       0.47162002 4.361434 0.7219249 0.52914184
000040 e8 49 6d 40 9b e6 ec bf ab 14 59 be 5e 84 3a 3e
       3.7076359 -1.8507875 -0.2119929 0.18214557
000050 d0 d8 e5 3f f2 44 eb 3e e9 18 05 c0 9c 59 fa 3f
       1.7956791 0.4595104 -2.0796454 1.9558597
000060 b5 75 57 3f 26 72 d2 3e f4 14 f9 bf 00 05 3f bf
       0.8416398 0.41102713 -1.9459519 -0.74617004
000070 67 14 19 3f 60 22 81 bd 74 e1 20 be f3 37 93 3c
       0.59796757 -0.06305385 -0.15711004 0.017971015
000080 c7 a0 6f 40 5b 03 a5 3f bd 10 95 3e f3 97 02 c0
       3.744188 1.2891649 0.29114333 -2.0405242
000090 ee 2b f4 3f 6a 84 67 3e 0e f3 90 3e e4 a0 89 c0
       1.9075906 0.22609106 0.28310436 -4.30089
0000a0 6e e3 47 be 61 29 cd 3e 76 d3 42 bd b9 70 03 bf
       -0.19520351 0.40070632 -0.047564946 -0.51343876
0000b0 d1 53 2a 40 43 4c 57 bf 82 5c c8 3f 5a a7 25 bf
       2.6613657 -0.8410074 1.5653231 -0.64708483
0000c0 c5 bb d5 bf d2 41 8e 3f 83 46 8f bf 19 64 68 be
       -1.6697928 1.1113837 -1.1193393 -0.22694434
0000d0 3f 99 b2 3e f2 e2 18 3f ec 87 40 3f a9 42 a9 3f
       0.34882542 0.5972129 0.752074 1.3223468
0000e0 e0 59 ab 3f ea 1f 05 3f d8 13 e9 bf 21 95 a7 3f
       1.3386803 0.5200182 -1.8209181 1.3092386
0000f0 a3 db 58 40 5d b2 23 c0 71 e3 bc bf 92 87 e7 bf
       3.3884056 -2.5577614 -1.475691 -1.8088248
000100 56 1f ed 3e df f4 eb be 56 97 e5 bf 82 51 67 bf
       0.4631297 -0.4608526 -1.7936809 -0.90358746
000110 5d 08 98 3f 9e 9f 37 bf 23 20 f2 bc a4 56 03 40
       1.1877552 -0.7172793 -0.02955634 2.0521631
000120 1f 78 c3 bf dc 4d 97 bd b4 7b a7 bf 56 14 8e be
       -1.5271033 -0.07387897 -1.3084626 -0.2774989
000130 bc 7d a4 be 3a 0c 1a bf e6 18 1f 40 c6 08 ce bd
       -0.32127178 -0.60174906 2.4858947 -0.10060267
000140 9c 91 bc bd c0 ae d2 bd 86 4f 64 bf 54 21 10 bf
       -0.0920746 -0.10287237 -0.89183843 -0.56300855
000150 9b 3f e0 bf 1e 2e 9a bf bc c1 25 3e 6a f5 54 bf
       -1.7519411 -1.2045324 0.16187185 -0.8318697
000160 64 76 76 3f 4b 57 27 bd 42 df a2 bf fe 67 aa 3f
       0.962744 -0.040854733 -1.2724383 1.3312986
000170 69 f4 02 bf 4e 09 3e bf a0 57 73 3f c9 16 03 40
       -0.5115419 -0.7423295 0.9505558 2.0482657
000180 6f 0d 80 3f 1b 61 37 3f 9e b4 93 bf 51 75 32 3e
       1.00041 0.71632546 -1.1539495 0.17427565
000190 56 d4 45 bf 5d b3 5f c0 8a 3c 93 bf 06 6a 04 40
       -0.77277124 -3.4953225 -1.150285 2.0689712
0001a0 dc 19 b0 3f 7c c8 0a be cb 5c 5f ba 8e af 69 be
       1.3757892 -0.13553041 -0.0008520602 -0.22820875
0001b0 3a 67 27 c0 48 b0 58 bf 1d 1b 46 bf c0 75 81 bf
       -2.6156754 -0.84643984 -0.7738512 -1.011406
0001c0 d2 6e a0 3f 32 45 83 bf 4c 03 82 3f 91 55 30 3f
       1.253382 -1.0255492 1.0157256 0.68880564
0001d0 fb 18 9e 3f 21 b7 33 bf 12 26 16 3f 32 58 b9 3e
       1.2351373 -0.7020131 0.5865184 0.362001
0001e0 3e a1 d6 3f 3a 67 d8 bc 3f 96 23 c0 79 10 1a 40
       1.6767957 -0.02641641 -2.5560453 2.4072554
0001f0 1d 46 9b 3e 86 49 8f 40 e8 01 c6 3f 08 68 93 3f
       0.3032693 4.477725 1.5469332 1.1516123
000200 de e0 68 3e 48 db ac bf 3a 35 f5 3e af e3 7d 3e
       0.2274203 -1.3504419 0.4789217 0.24793886
000210 6a 73 98 be e4 0a 0d bf 4a 54 b9 3f 26 70 08 bf
       -0.29775554 -0.5509474 1.4478848 -0.53296125
000220 57 f4 04 c0 83 81 eb be b5 8d 70 3f f4 f9 3c bf
       -2.0774133 -0.45997247 0.9396623 -0.738189
000230 92 f1 02 be 36 4c 70 40 06 c2 49 3f b5 c5 e1 bf
       -0.12787464 3.7546515 0.7881168 -1.763846
000240 54 96 4d bf 1f 5b 86 c0 5d 86 a3 3e 6e 17 04 40
       -0.8030751 -4.198623 0.3193845 2.06393
000250 1e 19 24 3f fe f1 5a bf 52 fe d4 3f e9 ce 54 c0
       0.64100826 -0.855255 1.6640112 -3.3251288
000260 5a 8c f9 3e 73 c4 db bd 3b 60 16 3f 57 bc 93 3f
       0.48739892 -0.10730829 0.58740586 1.1541852
000270 8f 3c cc 3f 77 fb df 3f 43 8a 2d bf 74 0c 2f 40
       1.5955981 1.7498616 -0.67789096 2.735135
000280 63 9f 0b 3f 28 e0 72 3e 37 78 9b bf 45 19 f8 3d
       0.5454008 0.23718321 -1.2146062 0.12114195
000290 16 7a d2 be 7c 4f 54 bf 70 0a c2 3f 8f 7a 95 3f
       -0.4110877 -0.82933784 1.5159435 1.1678027
0002a0 44 25 0f 3f 4d b9 a7 3f a1 0c 6a 3f 3c ac cc bf
       0.5591624 1.3103424 0.9142552 -1.5990062
0002b0 7b 6a 59 be f2 67 47 bf ae ed 6e 3d 0a 35 82 3e
       -0.21232025 -0.7789298 0.058332138 0.2543109
0002c0 16 3d 9b bf de 6f 8b 3f ab 21 da 3e 44 d6 90 3f
       -1.2128017 1.0893514 0.42603812 1.1315389
0002d0 8f 9a 85 bf c5 a2 d5 bf 55 58 02 bf d6 12 fc be
       -1.0437793 -1.6690298 -0.50916034 -0.4923312
0002e0 93 6c 30 40 c6 e1 fd bf fb fd a9 be 34 e5 dc 3e
       2.7566268 -1.9834526 -0.33201584 0.43143618
0002f0 fc 5e 8e 3f 62 65 2e 3f 5d 28 f6 bf 9a 23 75 3f
       1.1122737 0.6812345 -1.9231068 0.9575745
000300 6a 98 00 bf 63 11 94 3f d2 dd b9 3f 6e 45 48 3e
       -0.50232565 1.1567806 1.4520819 0.19557735
000310 df 1d 9a bd ef 4d d0 bf 25 e3 17 c0 62 ea 87 3e
       -0.07525229 -1.6273783 -2.3732388 0.26546007
000320 de b8 a1 be fa db 66 3f ef ae 88 bf 52 10 09 3f
       -0.31586355 0.9017941 -1.0678385 0.5354053
000330 3f c4 9e bf f2 7c c5 bd 41 99 35 3f 8d 66 6c be
       -1.240364 -0.09642972 0.7093697 -0.23085995
000340 60 78 cf 3d d9 c9 24 bf 22 04 3c c0 35 cb 1c 3f
       0.101303816 -0.64370495 -2.9377522 0.6124757
000350 37 a8 2c bf 1d 7d ac 3f c0 17 10 40 24 fb 94 bd
       -0.67444175 1.3475682 2.2514496 -0.07274464
000360 ec 09 df be 2e b8 81 3f f7 3b ca 3f 71 36 56 bf
       -0.43562257 1.0134332 1.579955 -0.8367682
000370 7a 2e ca 3e 72 e5 90 be 7a d3 e7 3f ab 5d 01 40
       0.39488584 -0.28300053 1.8111413 2.021342
000380 94 bc 82 3f d9 56 b6 3f b7 4f 05 bf 0c 2c fd bf
       1.02138 1.4245254 -0.5207476 -1.9779067
000390 6f 4d 18 40 a7 64 c4 3f 2f 52 20 40 16 f3 16 c0
       2.3797262 1.5343217 2.505016 -2.3585868
0003a0 9b 22 86 be 69 8e db be 1c 6e b2 3f d4 a3 f0 bf
       -0.26198277 -0.42882088 1.3939853 -1.8799996
0003b0 c4 e0 cd 3f e4 54 32 bf 74 62 2a 3f 49 d2 66 3f
       1.6084218 -0.6966078 0.6655648 0.9016462
0003c0 f5 d4 a1 3f 02 15 0b c0 7d 9b 8b 40 78 b9 6b bf
       1.2643114 -2.1731572 4.3627305 -0.9207988
0003d0 2d e3 36 c0 5f 18 0e 40 aa 40 5c 3d 21 96 9a bf
       -2.8576157 2.2202375 0.053772606 -1.2077066
0003e0 1e 58 44 3f 08 e0 f4 be 7a 07 7e bf 5b 4b 5e 3f
       0.76696956 -0.47827172 -0.9923016 0.86833733
0003f0 b4 99 92 3d 3a 9a ae bf e7 3c 8f 3e d4 a0 69 3f
       0.07158223 -1.3640816 0.27976152 0.9126103

lstm.weight_ih_l0 f4 [16, 8]
000000 ba fe 3e 40 6c 5a a3 40 b6 ac 37 c0 f2 17 1d 41
       2.9842973 5.104788 -2.8699164 9.818346
000010 b5 3b 2a 40 9e a6 c5 3f 87 fc 35 c0 af ea 8f c0
       2.6598942 1.5441473 -2.843538 -4.497398
000020 4a 51 89 40 38 11 83 c0 32 ec 84 40 b2 4f 1f 40
       4.291173 -4.095852 4.1538324 2.4892392
000030 00 91 28 40 f6 22 12 c0 46 b2 34 c0 a4 8b b0 bf
       2.63385 -2.2833838 -2.823381 -1.3792615
000040 9e dd 48 bf aa 7a e4 bf 9b 9d f5 3f e7 0c 24 40
       -0.7846316 -1.7849934 1.9188722 2.5632875
000050 ad 99 65 40 f9 55 c5 bf 8d 29 38 be da 64 00 40
       3.5875046 -1.5416862 -0.179846 2.0061555
000060 7d fa c6 40 77 a4 46 c0 76 36 4a 3f fe 99 92 c0
       6.218077 -3.1037881 0.7898935 -4.581298
000070 29 7a b8 c0 fc 8c 61 c0 9f 17 87 40 5e 09 a2 bf
       -5.764912 -3.52423 4.2216334 -1.2659109
000080 1b 44 11 c0 b6 e6 9e 3e 7f cd 3a 40 0c 46 96 c0
       -2.2697818 0.31035393 2.9187925 -4.6960506
000090 95 79 9f bf a2 dd 2a c0 ee 66 0d c0 e8 15 36 40
       -1.2458979 -2.6697774 -2.2094073 2.845087
0000a0 97 57 32 bf b2 13 05 3f 26 5b 08 3f 4c 60 4f bf
       -0.696649 0.5198318 0.5326408 -0.8100631
0000b0 52 45 cf 3b 41 02 7a bd e0 e6 ea be 84 b0 0b 3f
       0.0063254023 -0.061037306 -0.4587927 0.54566216
0000c0 4e 4d 13 3e 0d df cf bf 69 68 58 40 d8 94 67 c0
       0.14384958 -1.6239945 3.3813727 -3.6184597
0000d0 20 69 b3 3f 41 6b 4b 3f 20 bb 11 bf 6e 13 40 bf
       1.4016457 0.7946053 -0.56926155 -0.7502965
0000e0 f1 9c 26 bf d7 4f 31 40 86 24 ca 3f f6 30 e4 bf
       -0.65083224 2.770498 1.5792396 -1.7827442
0000f0 26 2a 84 bf b7 3a 4c 3f f7 24 63 40 d2 00 1a 3f
       -1.0325363 0.7977709 3.5491312 0.601575
000100 d0 24 54 3f 9c 27 b2 3f d5 3a b1 bf 82 f8 a5 40
       0.8286867 1.3918338 -1.3846079 5.1865854
000110 a0 42 c5 bf 32 fb 9b bf 64 e9 19 c0 29 f4 5f 40
       -1.5410957 -1.2186034 -2.40487 3.4992774
000120 62 65 8d 3f 4d 43 08 40 eb 5a 3a 3f 9e 48 fc 3f
       1.1046565 2.1291077 0.7279498 1.9709661
000130 54 e2 07 c0 59 d4 9d c0 d3 d9 19 3f d7 5d bf c0
       -2.123189 -4.9321713 0.60098 -5.980205
000140 76 23 f2 3e 09 01 24 be c0 4d 68 bf 19 b1 84 bf
       0.4729268 -0.1601602 -0.9074364 -1.0366546
000150 a3 94 80 bf b4 02 30 40 bd 55 72 40 e7 27 96 bf
       -1.004536 2.750165 3.786483 -1.1730927
000160 5c 79 8c 40 7c ce 67 be 6a 7f ef 3e 76 4a a9 c0
       4.3898144 -0.22637361 0.46776897 -5.2903395
000170 b6 25 bc c0 44 f2 96 c0 74 14 8b 40 25 50 f9 3d
       -5.8796034 -4.7170734 4.3462467 0.121734895
000180 14 63 46 40 9c 79 43 40 b1 67 8e c0 54 04 17 41
       3.0997972 3.0542974 -4.4501576 9.438557
000190 ee 3c 8f 40 0c c4 95 40 a5 03 9d 3f 34 4d db c0
       4.4761877 4.6801815 1.2266737 -6.853174
0001a0 0e 6a 07 c0 24 4d 17 40 ca 2b ec bf 6f e1 9d bf
       -2.115848 2.3640833 -1.8450863 -1.2334422
0001b0 bb 69 18 c0 5d aa 3a 40 15 3b 82 3f 42 ef 30 40
       -2.3814533 2.9166481 1.017428 2.7646031
0001c0 b9 04 a6 bf 03 8d 2d 40 50 15 61 40 6a fc f8 3f
       -1.2970191 2.7117317 3.5169258 1.9452031
0001d0 2e c9 ff 3f 92 a6 a8 40 b8 2e 92 3f 96 4f cc 3f
       1.998327 5.2703333 1.1420507 1.5961788
0001e0 9a 78 22 bf 0a 3d c3 c0 74 8c c9 c0 ca 15 62 40
       -0.63465273 -6.101201 -6.298395 3.53258
0001f0 70 1c 59 40 89 3c b6 40 8b 0e b4 c0 00 30 b8 c0
       3.3923607 5.6948895 -5.6267753 -5.7558594

lstm.weight_hh_l0 f4 [16, 4]
000000 48 9b 59 3e c3 f0 c0 40 1e aa d7 3f 63 90 19 40
       0.21250641 6.02939 1.6848791 2.3994377
000010 06 02 96 3f 14 46 f9 bf d3 32 89 c0 2b 32 be 40
       1.1719368 -1.9474511 -4.287454 5.943624
000020 6d cb f3 bd 85 8c 4f be 4e 25 12 c0 e5 c2 3b 3f
       -0.11904035 -0.20268448 -2.283527 0.7334426
000030 4c 79 e7 3f 0a 2c 95 bf 82 89 94 c0 71 f8 33 40
       1.8083892 -1.1654065 -4.6417856 2.8120387
000040 23 17 53 c0 61 53 cf 3f 7e 20 e4 c0 1d 4e 3e 40
       -3.2982872 1.619732 -7.1289663 2.9735177
000050 be 2e 6b 40 66 34 06 c0 3f 04 da 40 43 f0 10 c1
       3.674728 -2.0969481 6.8130183 -9.058658
000060 1f a4 24 40 e9 4a 1b 3f 44 9f 8a c0 f9 e4 11 40
       2.5725172 0.6066118 -4.3319416 2.2796004
000070 f7 58 bc bf ec 2a 25 3f 62 34 8a 40 6d 88 8a 40
       -1.471465 0.6451862 4.3188944 4.3291535
000080 7e 42 d0 3e 39 ed 42 3e 26 08 39 40 d7 99 a2 3f
       0.4067573 0.19035806 2.8911223 1.2703198
000090 40 e4 e5 bf 49 ee af 3e 28 98 20 40 83 3a 41 bf
       -1.7960281 0.34361485 2.5092869 -0.75479907
0000a0 29 3a 29 bf 25 14 ad be 3c 88 22 bf f8 26 4a bf
       -0.6610437 -0.33804432 -0.6348913 -0.7896571
0000b0 1b 79 2d bc 7b 30 54 be 72 9a 19 bf b1 4b d8 bc
       -0.010587956 -0.20721619 -0.6000129 -0.02640328
0000c0 49 44 cc c0 e5 2d b5 bf 47 11 b1 40 0c 5a d4 3e
       -6.3833356 -1.4154631 5.533359 0.4147495
0000d0 ec 28 5d 3e 5f 6b 2d 3f 1d 4d cc 40 f2 1d d2 c0
       0.21597642 0.6774196 6.3844132 -6.5661554
0000e0 59 0d 56 3f 22 c8 30 bf d1 7a c3 3f 98 05 6e 3f
       0.83614117 -0.6905538 1.5271856 0.92977285
0000f0 9d 47 69 c0 9f 3d a1 3f 8e 12 0b 41 9f e9 b1 c0
       -3.644996 1.259693 8.69203 -5.559768

lstm.bias_ih_l0 f4 [16]
000000 7f 38 1a 40 13 85 ca c0 a0 1e b5 40 dc e5 16 40
       2.4096982 -6.3287444 5.6599884 2.3577795
000010 55 6a 80 c0 6d a7 9a bf 96 c8 fd c0 e5 95 a6 c0
       -4.01298 -1.2082344 -7.9307356 -5.2057977
000020 f6 9e 60 40 42 b0 2a 40 34 a1 c7 c0 6e dc 2f be
       3.5097022 2.667008 -6.238428 -0.17173931
000030 51 a3 a5 40 cb e9 f7 40 c9 fd 9e 40 f6 de f1 40
       5.176186 7.747289 4.9684796 7.558467

lstm.bias_hh_l0 f4 [16]
000000 ba 00 d4 3f ea 95 c2 c0 5c 9a a4 40 58 f7 16 40
       1.6562722 -6.0808 5.1438427 2.3588467
000010 05 96 81 c0 f8 d2 7b bf 3b 2a e3 c0 8f 90 98 c0
       -4.049563 -0.9836879 -7.098905 -4.7676463
000020 89 4f 82 40 0c cd 03 40 79 18 b2 c0 80 4c 67 3e
       4.072209 2.05939 -5.5654874 0.22587776
000030 5b bb b7 40 82 bf fa 40 e5 c1 87 40 08 ab f1 40
       5.7416205 7.8358774 4.242419 7.552128

lstm.weight_ih_l0_reverse f4 [16, 8]
000000 a3 5e 61 3f b1 32 2a c0 10 84 be bf 5b 17 b6 bf
       0.8803503 -2.659344 -1.4884052 -1.4225878
000010 d0 e4 10 c0 da 98 70 40 7a c6 17 c0 04 88 85 40
       -2.2639656 3.7593293 -2.371489 4.1728535
000020 d1 40 8f 3f b0 90 9a 3f 5f d6 c2 3f 4c c4 a0 c0
       1.1191655 1.2075405 1.5221671 -5.023962
000030 89 8d 2c 3e 8e bf 13 40 ee d4 0b 40 d2 b3 83 c0
       0.16850866 2.3085666 2.1848712 -4.1157007
000040 e3 d8 a4 40 6a a4 ca c0 f8 0c 16 3f 44 5b 55 c0
       5.1514754 -6.33257 0.5861354 -3.3336954
000050 d9 51 a5 40 af 83 98 c0 74 57 d4 40 f0 2b 68 40
       5.166241 -4.7660747 6.6356754 3.6276817
000060 39 85 c4 40 15 a6 cf be 34 4d 4e 3f 45 3b e7 bf
       6.1412625 -0.40556398 0.8058655 -1.8064963
000070 bc 6a b8 40 f2 7c 8f 40 86 65 4b bd fb 42 a5 40
       5.763029 4.484002 -0.049657367 5.1644263
000080 ba c2 ca 3e 50 d8 91 c0 19 b3 0d 40 ee a6 97 40
       0.3960169 -4.5576553 2.2140563 4.739127
000090 eb 70 27 c1 50 be 16 40 39 89 61 c0 0a 79 78 40
       -10.465068 2.3553658 -3.5240004 3.8823876
0000a0 a3 b9 00 bf e2 fa f9 bf 65 96 8c 3f cd 7d 38 3f
       -0.5028326 -1.9529688 1.0983397 0.72066957
0000b0 bd 15 ac 3b 72 d6 b8 3e 14 a2 ea 3f 6d fa 72 3f
       0.005251615 0.3610111 1.8330712 0.9491337
0000c0 2b 12 79 3e ea 2b 20 c0 66 71 dc c0 43 4f b6 bf
       0.24323337 -2.5026803 -6.8888426 -1.4242939
0000d0 21 24 94 bf 87 21 e1 bf c9 6b 88 40 09 b8 54 bf
       -1.1573526 -1.7588357 4.2631574 -0.83093315
0000e0 10 80 a8 be 7a 1a ef 3f b3 5c d6 3d a2 97 b1 be
       -0.32910204 1.8679955 0.104669 -0.34686
0000f0 0f dc 63 be d3 22 20 3d ff 8d 08 c0 ab 2b ce 3f
       -0.22251914 0.03909571 -2.1336668 1.6107076
000100 9c b0 76 bf 88 0b 00 40 6e 93 29 40 ac d6 da bf
       -0.96363235 2.0007038 2.6496234 -1.7096763
000110 8b 03 06 bf 2d 08 be bf 85 2f 2e bf 57 09 d6 bf
       -0.52349156 -1.4846245 -0.6804126 -1.67216
000120 c5 e6 44 40 32 24 a6 3e bc 61 41 c0 dc 4b 06 3f
       3.076585 0.3244949 -3.0215902 0.524595
000130 0b 41 f1 be 49 47 ad be dc 90 4d c0 36 4c 60 bf
       -0.47119936 -0.3384345 -3.2119665 -0.8761629
000140 45 7e 2a 3f 6b f0 63 c0 74 72 0b 3f a0 cc 77 3e
       0.6659892 -3.561549 0.54471517 0.24199152
000150 9c 27 1c bf 7b 3f 22 40 da f8 85 c0 d6 1f 0a 3e
       -0.6099794 2.5351245 -4.1866274 0.13488707
000160 5d 3d 15 41 30 2a 9a 3f 50 be 96 bf 30 be 80 bf
       9.327481 1.2044125 -1.1776829 -1.0058041
000170 96 09 31 41 7e ea 56 3f 51 cf 46 40 b1 91 04 41
       11.06484 0.83951557 3.1064036 8.285569
000180 96 8b 44 40 f1 5e 27 40 74 fc c4 3f 95 a8 bc be
       3.0710196 2.6151698 1.5389543 -0.36847368
000190 05 d3 0b 41 a4 45 78 c0 1b de 78 40 26 2f 2a bd
       8.739018 -3.8792505 3.8885562 -0.04154887
0001a0 23 11 59 40 88 91 31 3e 9a ae 09 c0 8a c4 d4 bf
       3.391671 0.17340672 -2.1512818 -1.6622479
0001b0 ab 24 56 40 86 21 df c0 e0 59 24 3f cc 21 03 3f
       3.345988 -6.972842 0.6419964 0.51223445
0001c0 cd 78 5a be ad 02 3d be f2 fd 00 41 37 41 1c c0
       -0.21335144 -0.18458052 8.061998 -2.4414804
0001d0 a7 d3 ba 40 1b c9 6e 3c 33 17 1b c0 b4 34 6b bf
       5.8383365 0.0145743145 -2.423291 -0.91877294
0001e0 f3 5e c9 c0 10 51 70 bf 5c 0d 41 3f 03 40 2b 3f
       -6.2928405 -0.9387369 0.7541101 0.6689455
0001f0 0a 33 e5 c0 51 4f e6 3c 40 95 b2 bf f6 85 be c0
       -7.1624804 0.028113993 -1.3951797 -5.9538527

lstm.weight_hh_l0_reverse f4 [16, 4]
000000 1e 5a 80 c0 e8 f0 f8 bf 02 bd c6 3f c9 43 a4 c0
       -4.0110006 -1.9448519 1.5526431 -5.1332746
000010 47 7b fe 3f 31 2d b4 40 d7 62 66 c0 f8 44 87 40
       1.9881371 5.6305165 -3.5997827 4.227169
000020 59 e5 e3 c0 12 a1 2f c0 d7 23 08 40 02 24 b7 c0
       -7.1217465 -2.744206 2.1271875 -5.7231455
000030 7d 61 89 c0 ad f5 0a c0 28 ea 36 40 94 e3 d7 c0
       -4.2931504 -2.1712449 2.8580418 -6.7465305
000040 eb ad 02 c1 54 d7 7c c0 0e 08 a6 3f 6d 66 9a c0
       -8.16746 -3.9506426 1.2971208 -4.825003
000050 93 f8 4a 3f 99 9d 4a be 94 aa 43 3f f2 4a a2 be
       0.79285544 -0.19786681 0.76432157 -0.31697804
000060 b7 c9 eb 40 34 49 90 c0 03 80 4e c0 e3 f0 04 c1
       7.3683734 -4.508936 -3.2265632 -8.30881
000070 20 26 de bf 0f 5c 89 3f db c9 16 40 2b 03 de be
       -1.7355385 1.0731219 2.3560703 -0.43361792
000080 d7 41 ac 3f 3e bd a0 be 22 6b 8a be 7c e8 cf bf
       1.3457593 -0.3139438 -0.2703486 -1.6242824
000090 ad 13 b4 3f d3 d0 6e 3f 74 7e 31 c0 e6 bb 1c 40
       1.4068505 0.9328739 -2.773343 2.4489684
0000a0 d4 14 84 40 b9 e9 0a 40 2c ed 50 c0 d6 06 71 40
       4.1275425 2.1705153 -3.2644758 3.7660422
0000b0 35 83 a4 be 14 cf 08 3c 41 67 97 bd 4e 25 1b bf
       -0.32131353 0.0083501525 -0.07392741 -0.606038
0000c0 6d 27 0c 40 3d c8 af 3f a6 e3 f3 3f 5a 44 83 3e
       2.1899064 1.3732983 1.9053848 0.25638086
0000d0 36 31 b1 c0 16 fb 63 c0 bb 20 5a 40 c5 56 43 c0
       -5.537257 -3.5622 3.4082477 -3.052171
0000e0 aa 4e d1 c0 89 35 a2 40 ce d1 b2 40 ed 09 d7 bf
       -6.5408525 5.069035 5.588111 -1.6799904
0000f0 03 36 86 40 3f 11 23 bf 80 2a f7 3e 38 7d b5 40
       4.194093 -0.6369819 0.48274612 5.6715355

lstm.bias_ih_l0_reverse f4 [16]
000000 f8 1c ce 40 08 f5 77 40 85 6d 6f 40 1c fd 7a 40
       6.441036 3.8743305 3.7410595 3.9216986
000010 73 05 1d c0 fd 49 6f bf ab 82 5a c0 8e 93 5f c0
       -2.4534576 -0.9347227 -3.4142253 -3.493381
000020 43 23 a8 c0 8d 21 cf c0 79 2a 91 c0 bd 55 fa be
       -5.2543044 -6.4728456 -4.5364347 -0.48893538
000030 96 37 3d 40 0c 64 8f 40 a9 cc a3 40 af ce 99 40
       2.9565177 4.4809628 5.118733 4.80648

lstm.bias_hh_l0_reverse f4 [16]
000000 8f af bc 40 ed 52 51 40 ca 88 4a 40 e3 63 82 40
       5.8964305 3.2706864 3.164599 4.074693
000010 5c 08 48 c0 40 44 3f bf bd 04 5c c0 e2 f4 72 c0
       -3.1255102 -0.74713516 -3.4377892 -3.7961965
000020 fd 05 91 c0 ff 16 cc c0 7d 8b 76 c0 10 8d c2 bd
       -4.531981 -6.377807 -3.8522637 -0.09499562
000030 d2 65 2d 40 74 8f 6f 40 b1 8f be 40 71 d3 8f 40
       2.7093396 3.7431307 5.9550405 4.4945607

hidden2tag.weight f4 [9, 8]
000000 1a 22 b4 3f 5f fb 69 3f a6 f9 97 bf f6 68 ac bf
       1.4072907 0.91399187 -1.1873062 -1.3469532
000010 89 f4 e8 c0 42 14 20 c1 86 46 ef 40 60 37 1f c1
       -7.2798505 -10.004946 7.477359 -9.951019
000020 ed 08 56 40 1c 60 a7 be bc d6 18 41 f0 13 f7 c0
       3.3442948 -0.32690513 9.552425 -7.721184
000030 0a ae 28 40 ac f6 df bf 23 5b 33 c0 18 18 97 40
       2.6356225 -1.7497153 -2.8024375 4.721691
000040 f2 81 87 40 b8 f7 05 c1 eb 59 1f c0 7f 8e 5f 40
       4.2346125 -8.372978 -2.4898632 3.4930723
000050 e8 14 1d c0 85 fc ab c0 0b 28 2b 3e a7 7b 06 c1
       -2.454401 -5.374575 0.16714494 -8.405189
000060 f4 03 37 c0 8d 33 2a 40 f5 a1 4b c1 34 64 06 41
       -2.8596163 2.6593964 -12.72704 8.399464
000070 28 5f fa 40 ac 04 14 41 55 b1 c2 c0 67 e9 e9 40
       7.8241158 9.251141 -6.084147 7.3097415
000080 13 d4 5f c0 b4 12 22 41 e9 fd ca c0 5b 26 b8 40
       -3.497319 10.129566 -6.343495 5.754682
000090 de 49 64 40 52 f8 8e 40 3c 3f a4 3e 51 84 b1 40
       3.5670085 4.4678125 0.32079494 5.547402
0000a0 87 53 80 c0 72 f0 0d bf f4 02 9d 40 be 3e 8b c0
       -4.010196 -0.55445015 4.9066105 -4.351409
0000b0 91 d8 80 c0 5e 11 da 3f 09 fe 53 40 ea 35 33 c0
       -4.0264363 1.703655 3.31238 -2.8001657
0000c0 4c 26 86 3f 93 53 9f c0 5f ba 11 41 d2 1d 75 c0
       1.0480437 -4.978952 9.108001 -3.829945
0000d0 5d 72 74 bf e5 e3 b1 3f b7 18 16 c0 16 81 6a 40
       -0.95487005 1.3897673 -2.3452585 3.6641288
0000e0 d0 ee c0 bd 3c 11 9c 3d b2 f0 ae bd 9e e5 81 bd
       -0.0942055 0.07620475 -0.08542003 -0.06342624
0000f0 74 6e 83 be 4d 55 51 3e b2 d3 1f 3e 93 3e a5 bd
       -0.25670207 0.20442696 0.15608099 -0.08068576
000100 7e 7f e9 3d 48 87 eb 3d 9e 3a 92 3e 65 3b 8a 3e
       0.1140127 0.11500412 0.28560346 0.2699844
000110 5e bd 3c 3e d8 ef 61 be de cf 39 3d 13 ed 79 3e
       0.18431613 -0.2206415 0.045364253 0.24406843

hidden2tag.bias f4 [9]
000000 52 86 c1 be 99 6f 5d 40 b2 e9 da c0 d4 d3 91 be
       -0.3779779 3.4599364 -6.8410273 -0.28481925
000010 2e 60 3f c0 cd 86 ea 40 50 9b 95 be b3 4d 60 3e
       -2.9902453 7.328955 -0.29220057 0.2190464
000020 f3 b0 18 3e
       0.14911251
